model/10_10_6_current_policy_.model (torch_old, 591675 bytes, 15 tensors)

conv1.weight f4 [32, 4, 3, 3]
00000000: e2b9 923e 76a4 e1bc cfef 5abc 62dd a23e
00000010: 577c bebd c00d 3c3d 7236 333e cf84 6e3d
00000020: f316 11be 7d82 b33d f274 46bc 0fe1 903e
00000030: ac6d 7e3c b3a2 6abe dd75 bb3c 49c3 a53d
00000040: 5666 1f3d 5c53 0e3e 9df5 83bd a65e 4c3d
00000050: e4ba 1cbe 8e0a 883c b258 d9bd 40cd 8ebc
00000060: 28c0 cdbd 27b2 a5bd 558d aebd dc04 33be
00000070: b096 49bd 1435 453e 1d7c 94bd 27a8 a93d
00000080: 42ad a33d 2a55 1b3d 72fb 26be 9bd7 47bd
00000090: 9c31 003e accb 9ebd 9a6e a6be 6409 223e
000000a0: 5d91 34bc 3980 b9bd c234 a33d 7b74 233e
000000b0: 94fd ca3b 6b92 323e eda3 803d 7d96 0e3e
000000c0: d2b6 053e 06d4 b63e 7451 8e3b c12b e0bd
000000d0: dd0d 443c 719f a33e db06 723d 8bff 41bc
000000e0: 56c8 01bc 0d68 d8bd 11be 8f3d f951 103c
000000f0: 6a89 933d 14a5 1abd d9ec 923e 6f25 ad3d
00000100: 12c9 d33c cccd 06be 3487 bbbc f01b 05bd
00000110: 216c 9b3c b78e 043e d26d 483e cf5f 8a3b
00000120: 6c24 6c3e cca8 903d b457 b03e fcc1 b8bc
00000130: 5f46 073e ba33 1ebd 21e9 c4bd 7b60 17bd
00000140: 1e4d e73d aea7 b53d 3c26 c93d 1d58 b9bc
00000150: bb42 c03e e62a 003e 035f c7bb 573b 193e
00000160: d3a6 573e 79f8 a83d ba05 843d 55bb 08bc
00000170: 96a3 36bd b9a4 23bd c831 aebb 891a f73c
00000180: 45e9 f4bb dece d9bc 4937 6c3d d18b 803e
00000190: 1a82 6b3d 361d 863e ca00 ddbd c338 f03d
000001a0: 74a0 fa3a 9fef da3c dceb 67bd b337 a03e
000001b0: 2d3e 96be c6d0 203e eb17 093e eaba 993e
000001c0: 72bf 8f3d 31b3 28be a199 b23d 1d68 d0bd
000001d0: b010 22be 9527 3dbd 5354 633e ecdc c3bd
000001e0: b82f 023d 7cf2 343e 4e97 2a3e 403e c3bc
000001f0: 5d55 593e ef5d 9c3e 8590 62bd fc89 21bc
00000200: 0325 d4bb 2eca 083e b2cc 653d 2d14 88bd
00000210: b535 bebc 0d19 82bc 089f 843d 5168 9bb9
00000220: acfd 183d 483c 8c3c ab09 3b3e b4c3 0f3d
00000230: 3bbb a03c 20c9 8b3e f3da 8e3d 306f c5bd
00000240: aa7a 283e 44d1 403e 162c 55bc bfe8 91bd
00000250: 159e 913d ecc7 c13d 83b4 283e 7b26 033d
00000260: c810 e23e fed3 26bd 0e87 6e3e 59f9 923d
00000270: db75 e6bd 0d2a 2c3e b4d2 123d e85d a6bd
00000280: 478c 413e 5151 5fbd 14a7 e0bc 875a 46bd
00000290: 2e19 39bc 9e94 afbc 1a6a d83d b740 43bc
000002a0: be6a e238 049f ed3d bb05 84bd 5bae ca3c
000002b0: 30f8 14be c943 8ebc 435f 363e c524 2cbd
000002c0: 0688 943c 7eee 93bd 39b7 d13c 12e9 fabc
000002d0: 8885 98bd e012 28bd 5e18 f0bc 0ba6 3f3d
000002e0: ea6f f1bc 3e1c a33d 53fe 9f3e 163e 5e3d
000002f0: 4fd8 9abb 6fb0 b63e ed48 773e e72f 823c
00000300: bc72 783e c713 bf3e e0f1 51bd c132 37be
00000310: 9572 92bd 5f39 d2bd 7c32 3ebd 3324 85bc
00000320: e0b4 953b 63e8 75bd c330 f7bd 5163 92bc
00000330: 87c4 1d3d b52e 8c3d bee5 51bd 16db af3d
00000340: 2d90 c4bd 315c 0f3e 08f5 f9bc a69c 7abd
00000350: c1f9 4fbd daea a23d eaa6 d5bc 1d16 87bc
00000360: 513d a7be ade0 d53c 27a0 6c3e ed29 f3bb
00000370: 5374 773e db9e fc3b d19b a93e 7848 343e
00000380: a030 0d3e e451 db3d 4553 cf3d 667b e1bd
00000390: 1411 5cbe 9f95 1fbe fc6e 333e 7500 19be
000003a0: 5bcb 87be a0c7 49be 996d c43c a7c1 103c
000003b0: f46f f83d df01 eabc 8478 7b3e 9d9b 033d
000003c0: 0ae4 033e 9e9b bdbd aa8e e7bb 0dbf 2dbe
000003d0: 85da 9e3d ec6b 7c3d 4c8b d7bd 09a0 ce3d
000003e0: 0c0e 5a3e 6c73 51bd f1ee 153d b407 1d3e
000003f0: 498b c23e aff4 95bd 163b 5f3e 33da 7dbd
0.28657442 -0.027544241 -0.013362839 0.31809527 -0.0930106 0.04591155 0.17501238 0.058232125
-0.1416891 0.08765123 -0.012112843 0.28296706 0.0155290775 -0.22913627 0.02288335 0.08093888
0.038915955 0.13898987 -0.064433314 0.04989495 -0.15305668 0.016606595 -0.106126204 -0.017431855
-0.100464165 -0.080906205 -0.08523051 -0.17482322 -0.049215972 0.19258529 -0.07250235 0.08284026
0.07992031 0.037923016 -0.16306856 -0.0487896 0.12518924 -0.07753691 -0.32506257 0.15823895
-0.011020985 -0.0905766 0.07969047 0.15962403 0.0061947796 0.17438667 0.06281266 0.13924594
0.13058022 0.35708636 0.004343206 -0.109458454 0.011966196 0.31957582 0.05908857 -0.011840711
-0.007921299 -0.10566721 0.07018674 0.008808606 0.07203944 -0.037755087 0.28696325 0.084544055
0.025852714 -0.13164443 -0.022891618 -0.032497346 0.018972458 0.12945066 0.19573143 0.004222847
0.23060769 0.070634454 0.34441912 -0.022553436 0.13210438 -0.03862355 -0.09614778 -0.036957245
0.11294006 0.08869873 0.09821746 -0.022625023 0.3755091 0.12516364 -0.0060843243 0.14964043
0.21059732 0.082505174 0.06446405 -0.008345445 -0.0445896 -0.039952014 -0.005315993 0.03016402
-0.007474097 -0.0265879 0.05766991 0.2510667 0.05749712 0.2619416 -0.10791166 0.117295764
0.0019121305 0.026725588 -0.056621417 0.31292495 -0.2934431 0.15704641 0.1338803 0.30025417
0.07018937 -0.16474606 0.08720709 -0.10176108 -0.15826678 -0.046180326 0.22200136 -0.09563622
0.03178379 0.17670625 0.1665928 -0.023833394 0.2122397 0.30540416 -0.055313606 -0.009859558
-0.0064741387 0.13358375 0.056103416 -0.06644473 -0.023218969 -0.015881086 0.06475645 -0.00029641626
0.037351295 0.017118588 0.18265407 0.035098746 0.019620528 0.27301884 0.06975355 -0.09640348
0.16453043 0.18829829 -0.013010999 -0.07124471 0.0711023 0.0946196 0.1647511 0.03201912
0.44153428 -0.040729515 0.23293707 0.071764655 -0.11252948 0.16812916 0.035845473 -0.0812338
0.18901168 -0.05452091 -0.027423419 -0.048426177 -0.011297507 -0.02143317 0.10567112 -0.011917285
0.00010796402 0.116025954 -0.064464055 0.024741342 -0.14547801 -0.017366307 0.17809777 -0.042027254
0.018131267 -0.07223223 0.025600063 -0.030628715 -0.07447344 -0.041033626 -0.029308494 0.04678921
-0.02947231 0.07964371 0.3124872 0.05425843 -0.004725493 0.35681483 0.24148913 0.015891982
0.24262518 0.37319776 -0.05125606 -0.17890455 -0.07150761 -0.10264849 -0.046434864 -0.016252613
0.004568681 -0.060036074 -0.120698474 -0.017869623 0.0385175 0.06844846 -0.05124449 0.08586709
-0.09597812 0.14000012 -0.030512348 -0.061184548 -0.050775293 0.07954951 -0.026080567 -0.016490037
-0.32663968 0.02610811 0.23107968 -0.0074207694 0.24165468 0.0077093667 0.3312669 0.1760577
0.1378808 0.10708979 0.10123304 -0.110098645 -0.2149089 -0.1558442 0.17522806 -0.1494158
-0.26522335 -0.19705057 0.023978041 0.008835233 0.12130728 -0.028565345 0.24557692 0.032130826
0.12879959 -0.09258197 -0.0070665674 -0.16967411 0.07756523 0.06162636 -0.10524616 0.10089118
0.21294421 -0.051135466 0.036604825 0.1533497 0.3799689 -0.0732206 0.21799883 -0.06197567

conv1.bias f4 [32]
00000000: 6646 ca3d 1a22 26bd 41b2 e6bd a728 943b
00000010: dcc1 66bd e98a d0bc af33 a33d c8d4 1b3e
00000020: 59a3 1e3c 1bb9 b33d 1c88 f93d f69b b03d
00000030: ab1f 073e 3e53 323e e2d5 d4bc c19a 403e
00000040: b0de fc3d 900b 193e 0677 e8bd 4e6c 8b3d
00000050: f1fd 503e 1c52 273d 8898 993d dcf2 f93c
00000060: 1d67 cfbb a957 bd3d 62ea 97bd 6648 50bc
00000070: a3fb 773e ba92 bfbd 57e4 f23c 7343 1e3e
0.09876709 -0.040559866 -0.11264468 0.0045214477 -0.056337222 -0.025456863 0.07968842 0.15217888
0.0096825 0.087755404 0.12184164 0.08623497 0.13195674 0.17414567 -0.025980894 0.18809034
0.12347162 0.14945817 -0.11350827 0.06807767 0.20409371 0.04084979 0.07499796 0.030511312
-0.0063294307 0.092452355 -0.07417752 -0.012712574 0.24217086 -0.09354158 0.029649897 0.15455417

conv2.weight f4 [64, 32, 3, 3]
00000000: 0b87 893d 32e0 403d 7903 2dbc a077 a0bb
00000010: da7c ae3d e8dd 81bd 771a 81bd a26f 14bc
00000020: 9fed 223b d7b7 803d a90a 8a3c 4fbb 00bd
00000030: 5da8 8e3d ce1d c43d 5458 9f3d fd1c 0f3d
00000040: 30cf 5d3d 463b 36bd 476d 963d c446 c93d
00000050: 235c 64bc b3dd 8c3d e9a7 543d 3caf 11bd
00000060: 0c4d a0bd 39c2 f03d b206 933d 895e 62bc
00000070: b575 633d 6451 11be 9a65 053e c65b 873c
00000080: da16 ba3c 13e3 f43d 92a0 3e3d 7543 c9bc
00000090: e833 cf3d 5ea6 d8bd bef9 713d a40a d93c
000000a0: 6ac0 7cbd 3394 69bd e3b4 8c3d 1af5 adbd
000000b0: da20 863d 6ea4 a3bd 18e4 e53d b956 e53b
000000c0: ebc0 d53d a239 463d 670f 973c 5b19 5cbc
000000d0: 2f0b 4d3b 1b7a 043d bcc5 5abc 40e7 7fbd
000000e0: f343 27bd 0c10 febc d9b7 0f3d 1da5 b2bd
000000f0: 5c8c a9bd b131 b5bd 090a ed3c 7647 f13d
00000100: 8dc9 a03d d764 4bbc a83c 3d3c b0f1 a7bd
00000110: afd7 6abc e413 e3bd 4bee b23d c386 b13d
00000120: 1d97 9abe 9bcb 6f3c ddde 303c 9f4a c63d
00000130: 45d1 293d 4ce0 c43c 323a 4cbd 78d7 91bc
00000140: 78a7 56bd ef87 76bd 892f 3fbd a70d 903d
00000150: 5eb2 ae3c 7dcc f6bb 6cab 48bd f8ec 0bbd
00000160: ab9a 803d afa4 5abd aad1 41bd 3bc9 1e3e
00000170: d997 f63c 81b5 9cbd ea88 08bc 4937 ac3d
00000180: 4122 55bd 1f7d b3bd 95f0 13be 3010 8fbd
00000190: f06a 17bd c5ee 83bc b331 6a3d 2ed5 bc3c
000001a0: 087e bd3d b7f8 8dbd fb68 04bc ed98 0fbd
000001b0: 118e aabc 71f4 523d d77d 1ebd fb4e 8bbd
000001c0: 1f0d 9ebd 00c9 8abd d01b 183d deb7 a5bd
000001d0: 2bbe 5fbd e510 94bd 8a98 1fbe 6dd1 2abd
000001e0: 4fc0 383e 68cc dd3d eee8 a1bc c322 dfbd
000001f0: bf74 bdbd a5c8 73bd 1a8e 6bbd 53fc 393e
00000200: 538c 68bc 92ab 053e 4bea e1bb 6bea 133d
00000210: 89ea 943d 0a33 053d 1215 8b3b e810 0cbe
00000220: 86d7 7bbd 6a46 b73d 378f 023e 38eb e2bc
00000230: c176 4cbd 61cf ca39 0896 3b3d b9ef 80bd
00000240: 3808 1cbc e95d f8bb 38c9 95bd a9e4 debd
00000250: 56e8 b5bd 5821 19be ba4a 263d 7a89 69bd
00000260: ac12 913d c019 7bbc 6e38 84bd 538c 5fbc
00000270: c07d bcbc 96d7 6e3d b620 88bd 1753 75bd
00000280: 2502 1a3e cf4b f13c e0aa 6bbd 0f90 56bc
00000290: 159a 9b3c 2ab7 533d 23c2 383d d365 d4bd
000002a0: 2e37 a93d 580b 79bc 6a84 3bbd b816 50bd
000002b0: e99c 38be 3266 29bc 8690 a9bc 99be c0bc
000002c0: ef76 213d e6d4 8d3d 54d3 b63d 1b82 4bbc
000002d0: 9baa b1bd 526b a9bb 19ad 5ebd 13d6 97bc
000002e0: 0ddf a7bd b860 623d 065d 553e 0f5d c7bb
000002f0: 74fb 633c 5554 48bd 6982 06be 429a acbd
00000300: 963d 833c 5db0 62bd 8725 04bd 4431 93bc
00000310: 03f9 0d3c cf6a be3b 4d6d d33d fc8a adbd
00000320: 5f6b bebd b18c 873c ff37 273d fc01 f1bc
00000330: 4397 23bd 559f f2bb 131e d63d 3d6a cd3c
00000340: 3328 e13d e3ac c03c 4df2 1d3e e82a 21be
00000350: e1ce 0abd 3cae c0bd b280 ec3d a696 be3d
00000360: 44ae 1bbe b402 7bba 4dda 90bd 7c0b 073e
00000370: 5f44 23be baea a1bc 00e3 ea3c 488a 6dbc
00000380: 5e95 16b9 43f6 4c3e d634 0abe 4c61 c6bc
00000390: dbec bcbc 2c3e d63c e675 cb3d e2c4 43bc
000003a0: 5d14 f33d f93f 363d 311d 62bc 37b3 9bbd
000003b0: 990c 1dbd 9e82 44bd 7516 653b 6058 6abd
000003c0: b137 22be d00a 62bd 8941 12bc 7174 07bd
000003d0: 880c 09bc 2630 923d 1fd0 933b d132 bf3d
000003e0: 0e72 a73c a087 043d 2787 c4bb 45a4 b23c
000003f0: 3a68 c03d fa44 ee3d a4e1 43bd 2e07 6d3d
0.067152105 0.04708881 -0.01055991 -0.004897073 0.08519907 -0.063411534 -0.06303876 -0.009059818
0.0024860871 0.06285065 0.016850786 -0.03142863 0.069657065 0.09575997 0.07780519 0.034939755
0.054152668 -0.04449012 0.07345062 0.098279506 -0.013937983 0.06878223 0.051917944 -0.035567507
-0.078271955 0.11755795 0.071790114 -0.013816484 0.055532176 -0.14191204 0.13027039 0.016523253
0.022715975 0.119573735 0.04653985 -0.024568299 0.10117322 -0.10578607 0.059076063 0.026494332
-0.061706938 -0.0570261 0.06870439 -0.08494015 0.06549235 -0.07990347 0.11225146 0.0069988635
0.10437187 0.048394807 0.018439962 -0.01343378 0.0031287184 0.03234301 -0.013352808 -0.062476397
-0.040836286 -0.031013511 0.03508744 -0.08722899 -0.082787246 -0.088473685 0.02893545 0.11781208
0.07850943 -0.012414179 0.011550106 -0.08200395 -0.01433365 -0.11087778 0.08736857 0.08668282
-0.30193415 0.014635946 0.010795322 0.096822016 0.04145934 0.024032734 -0.049860187 -0.017802939
-0.052405804 -0.06018823 -0.046676192 0.07033854 0.021325286 -0.007531701 -0.048991606 -0.034161538
0.062795006 -0.05337971 -0.04731909 0.15506451 0.030101703 -0.076518066 -0.008333424 0.08408982
-0.05203462 -0.08764099 -0.14447244 -0.069855094 -0.036967218 -0.016105065 0.057176303 0.02305087
0.09252554 -0.06932204 -0.00808167 -0.03505795 -0.020819696 0.05150265 -0.03869423 -0.06802174
-0.077173464 -0.06776619 0.0371359 -0.080917105 -0.054624718 -0.07229785 -0.15585533 -0.04170363
0.1804211 0.10830003 -0.01976439 -0.10895302 -0.09250783 -0.05951752 -0.057508565 0.1816266
-0.014193612 0.1305373 -0.006894385 0.03611223 0.072712965 0.032519378 0.004244455 -0.13678324
-0.061484836 0.08948977 0.12749945 -0.027700052 -0.04991794 0.00038682952 0.045797378 -0.062957235
-0.009523444 -0.0075795543 -0.0731377 -0.10883457 -0.08882205 -0.14954126 0.04059861 -0.057015873
0.070836395 -0.0153259635 -0.064560756 -0.013644296 -0.023009181 0.058311068 -0.06646864 -0.059893694
0.1503988 0.029455094 -0.057536006 -0.01309587 0.01899437 0.05168835 0.04510702 -0.10370984
0.08262478 -0.0152004585 -0.045780577 -0.050802916 -0.18028606 -0.010339307 -0.020698797 -0.023528384
0.039420065 0.06925373 0.089270264 -0.012421156 -0.086751185 -0.0051702643 -0.054364298 -0.018534696
-0.081968404 0.05526802 0.20836267 -0.0060840915 0.013914932 -0.04890855 -0.13135685 -0.0842786
0.016020577 -0.055343974 -0.03226235 -0.017967828 0.008665326 0.0058110724 0.10323582 -0.08473775
-0.09297823 0.01654658 0.040824886 -0.029419892 -0.039939176 -0.0074042478 0.10454955 0.025075072
0.109939955 0.023519939 0.15424462 -0.15739024 -0.0338887 -0.094082326 0.11547984 0.09306078
-0.15203196 -0.0009575293 -0.070728876 0.13187975 -0.1594405 -0.019765247 0.028672695 -0.014498301
-0.00014360758 0.20015816 -0.13496718 -0.024216317 -0.02306216 0.026152693 0.09934597 -0.011948796
0.11869118 0.044494603 -0.013800905 -0.07602542 -0.038342092 -0.04797613 0.0034956012 -0.057213187
-0.15841557 -0.055186093 -0.008926758 -0.03307003 -0.008364804 0.0713809 0.004510894 0.09335864
0.020440128 0.032355905 -0.0059975567 0.021806845 0.0939488 0.1163425 -0.04782261 0.057868175

conv2.bias f4 [64]
00000000: 76b3 9dbc c4bf a3bb a3d8 033d 05a6 56bd
00000010: 1562 35bd d99b e7bd a191 d7bd 2b5e 153c
00000020: 2f65 223d 5320 16bd 831c f23c 3376 debd
00000030: de6c 6bbd cbf5 9c3d fc72 2e3d 6fda 7c3d
00000040: a6a3 6c3d d62d adbc 4e24 a5bc bf9a 983c
00000050: 1e5a 103c d9c0 aa3c 5776 173b dcc0 e63c
00000060: 477f 28bd 6eb5 b83b 4465 323d 6610 9a3c
00000070: 850a 6f3d 4fd9 273d 7678 293c 571b b83d
00000080: a0c2 cc3b 5dff adbd 3bcb 88bc 541a 7b3d
00000090: 1ca4 40bd 99bc 90bc dc00 45bd 5229 03bc
000000a0: 9d2e 883d 5c2a 23bd 66fa 1f3d a0d6 43bc
000000b0: 46b5 e2bb af52 0fbb 2145 1f3d f727 c13d
000000c0: e667 15bd 8512 ee3c 3b8a 393d 5d02 333c
000000d0: d6a4 153c 598c 54bc a001 96bd b04f d0bb
000000e0: fa50 ff3c ff35 92bd e664 d2bc 9546 74bc
000000f0: 8d6f 22be 4e8c c63d 813f c43d 324c 09bd
-0.019250613 -0.0049972255 0.032189023 -0.052404422 -0.04428299 -0.113090225 -0.105258234 0.00911669
0.039647277 -0.03665192 0.029554611 -0.108623885 -0.05747687 0.07664069 0.042590126 0.061731752
0.057773255 -0.02114002 -0.020158913 0.018628476 0.008810548 0.02084391 0.0023111308 0.028168134
-0.041137006 0.0056368625 0.043553606 0.018806648 0.05835964 0.040978726 0.0103436615 0.0898959
0.006248787 -0.08495972 -0.01669847 0.061304405 -0.047031507 -0.017668055 -0.048096523 -0.008005457
0.06649516 -0.03983532 0.039057158 -0.011953026 -0.006918582 -0.0021869352 0.038884286 0.09431451
-0.03647604 0.029061565 0.045297842 0.010925856 0.009133538 -0.012972915 -0.07324529 -0.0063571557
0.031166542 -0.07139205 -0.025682878 -0.014909406 -0.15862866 0.0969473 0.09582425 -0.03351993

conv3.weight f4 [128, 64, 3, 3]
00000000: f590 0abd 0582 033d 5829 ccbc efcb 053e
00000010: 1fce 14bc 93b2 24be 56fe b5bc 2290 5e3d
00000020: 59e3 4bbd 4ea3 84bd a7dd 063c 1ea6 5abd
00000030: bdbe 053e 9aeb 5ebd ce80 943d 45af fe3c
00000040: 0a93 92bc d030 1abd 3c44 e43c d042 26bd
00000050: 716b b03c 1046 f8bc eeb4 03be 55a9 a6bd
00000060: e164 f4bc e7dc 203d dfae 80be 2338 f7bd
00000070: 9abe 41bb 1a34 e6bd 248b e6bd a877 913d
00000080: 8e54 bd3d 94be 1dbe 05fb 11bd b7a8 4cbd
00000090: 7b76 be3d 3ce4 98bd b4a4 c73d 5f88 44bd
000000a0: ad9c 0d3c bcec 47bd 9ba3 ad3d 53ce 36be
000000b0: e39c 1a3d 2098 50bd 379d db3c 28d1 823d
000000c0: 2599 243e ac45 7d3d f2cc 453e 455e ae3d
000000d0: 01e2 2f3e 71a5 943d 5bb7 d4bd 8c45 e53a
000000e0: 9bcf 5b3a 3113 af3d a774 82bc b1e5 18bd
000000f0: f887 60bc 1c9d 043e be53 9cbd a574 933c
00000100: 71ec 7c3c 31fc 9e3c 844c 35bd 921b 72bc
00000110: 5aad 273d 9896 c83a aea7 423d fcbc 833a
00000120: 5bc2 8fbd c203 1a3b ecfc a53d 3bda d23d
00000130: 4462 9a3c 5ee9 a23d 6b65 6abd a18d 2cbc
00000140: c2c8 d9bc 6d86 243d a274 253d 8184 223b
00000150: df9c 2e3d 5573 ddbd 5c3a 09bd 2522 90bc
00000160: 9e0b 15bd 6581 093d f166 21bd d9d4 ee3d
00000170: afe7 2bbd 432e 93bd 9fb9 023e ba35 303d
00000180: 5b82 c13d a1f6 cf3d d40b 25be 0803 3c3d
00000190: 8030 adbc 5e1d dfbd 299e b139 8c3d 203e
000001a0: 5bc4 523d 679d 253d 1738 2f3d 60ef 9d3c
000001b0: 951b 4b3d c14b 8a3d 527e 203e cc04 91bc
000001c0: 5322 6c3d 34d0 f8bc 4a70 033d a4ce 273d
000001d0: 6ff4 65bc 111b b8bc c462 523c a6ee 063d
000001e0: ea56 2fbd f242 8f3d 90eb 6cbc ab88 93bd
000001f0: c6a2 5d3b 3c2d f2bd 03c4 0d3e 394d 98bb
00000200: 6360 a33d da29 313d 4a14 69bd 6283 5d3d
00000210: 2bcc 473d 76dd a3bd 1466 483d 8900 2eba
00000220: 0cba 55bd a320 e1bd 60a5 07bd 5050 073d
00000230: bce9 9c3b b15e d53b 9762 ab3a 55c0 a5bd
00000240: a76f d3bd a27f 4f3c 0228 c0bd cef5 1cbd
00000250: 535b 68bd 76e2 093c 605b d9bc 81ae 3c3c
00000260: df9d 2cbc 80f6 ea3c 47c6 99bd f8b7 a8bd
00000270: b767 ac3d 7ffc 463c f58b 8abd 4a92 583e
00000280: 253d 2f3e 78ce 1d3e dfdf 233d 8753 a9bd
00000290: dac1 c23d 46d5 babd 73bb 1abd 507f b03d
000002a0: e66c 86bd 48e6 7ebd e2e8 9a3d 6275 3cbc
000002b0: bce0 a13c ffc8 9ebd 8b3d 3a3d 3e97 9a3c
000002c0: cfe5 bebc d332 1fbd 6e9e 24bd e17a 33bd
000002d0: 538a f73d a251 e6bc 5f89 123d f468 cc3c
000002e0: 3135 e23c 7af8 c63c d1b0 adbd 4491 413c
000002f0: 15bf 273d 2f8d 153d acd1 463b b8f3 3fbd
00000300: 3101 23be 475b 3d3c 04d8 6ebb db49 c2bc
00000310: fb2f ddbc 765d 4d3d 7905 d23c ab60 68bd
00000320: c6e6 68bd 91a6 153c aa68 6c3b 146f 9a3c
00000330: e656 0fbc c9dd 4cbd ddc0 d9bc 91cc 04be
00000340: 6f57 3fbd 1471 c0bd d6af 82bd 6abb edbc
00000350: 5e79 833c 8bde eebd 97df 483d 9fea 1abd
00000360: 6d00 0bbe f378 dabd a82c 73ba 6770 ebbc
00000370: 87a7 b83d baa3 8bbd e127 e5bc f817 423c
00000380: 183b 92bc 8b3b 223d 9d91 2dbe fbf7 783d
00000390: ca51 ba3d 3fec e2bd 0ff2 87bc a8bc 6ebd
000003a0: 7b5b 35bc 53a6 323d 53b1 723c 6aa0 b8bb
000003b0: d4b5 833d 56cb dcbc b6fb 123e 4b52 393c
000003c0: 8ce4 d9bc 0e18 adbd 4a27 073e 2950 ff3b
000003d0: f0be bcbc 9859 82bd d710 a5bc e518 38bc
000003e0: 73b5 273d 7bae 963c 991d b33d 6c1a e43a
000003f0: ac6a 0ebe 5a42 acbc d2fc 56bd 60d6 08bd
-0.033829648 0.03210642 -0.024922058 0.13066076 -0.009082346 -0.16083746 -0.022216003 0.054336675
-0.049777362 -0.064764604 0.008231557 -0.053381078 0.13061042 -0.054423906 0.0725113 0.031089434
-0.01789238 -0.037644207 0.027864568 -0.04059106 0.021535607 -0.030306846 -0.12861988 -0.08137766
-0.029833259 0.03927317 -0.25133416 -0.12071254 -0.002956307 -0.11240406 -0.11257008 0.07102901
0.09244643 -0.15404731 -0.03563978 -0.049965587 0.09299942 -0.07465407 0.097482115 -0.047981616
0.008643311 -0.048809752 0.08478471 -0.17852144 0.037747275 -0.050926328 0.026808364 0.0638755
0.16074045 0.061834022 0.19316462 0.08514074 0.17176057 0.07258118 -0.10386535 0.001749204
0.00083851226 0.08548582 -0.015924765 -0.037328426 -0.0137042925 0.12950557 -0.0763316 0.017999956
0.015437231 0.019407364 -0.044262424 -0.014777081 0.040936805 0.001530367 0.047523193 0.0010050829
-0.07019492 0.0023500775 0.08104882 0.102955304 0.018845685 0.079546675 -0.057225626 -0.010531814
-0.026584987 0.04016726 0.040394433 0.0024798217 0.042630073 -0.108130135 -0.03350292 -0.017594406
-0.036388032 0.033570666 -0.039404813 0.11661691 -0.041968998 -0.07186558 0.12766121 0.043019988
0.094486915 0.101544626 -0.16117793 0.04590133 -0.02114129 -0.10894273 0.0003387791 0.15648478
0.05145679 0.040433314 0.0427781 0.019279182 0.04958685 0.0675273 0.15673187 -0.017702483
0.05764992 -0.030372716 0.03208951 0.040968552 -0.014035328 -0.022473844 0.01284093 0.032942437
-0.042807497 0.06995191 -0.014460459 -0.07203802 0.0033818944 -0.11825034 0.13844304 -0.0046478775
0.07977369 0.043252803 -0.056904115 0.054080375 0.048778694 -0.08001225 0.048925474 -0.0006637653
-0.05217938 -0.10992553 -0.0331167 0.033035576 0.0047886055 0.0065115322 0.0013075647 -0.08093325
-0.1032403 0.012664707 -0.09382631 -0.038320355 -0.05672772 0.008415809 -0.026532829 0.011516214
-0.010535686 0.028681993 -0.075085215 -0.08238214 0.084182195 0.012145161 -0.06764976 0.21149555
0.17113169 0.15410793 0.040008422 -0.08267885 0.095096305 -0.0912271 -0.03777642 0.08618033
-0.065637395 -0.062231332 0.0756395 -0.011502596 0.019760482 -0.07753181 0.04546885 0.018870946
-0.02330294 -0.03886683 -0.040190153 -0.04381836 0.1208693 -0.028115097 0.03577554 0.02495239
0.027613254 0.024288405 -0.08480991 0.011814419 0.040953714 0.036511596 0.0030337377 -0.046863288
-0.15918423 0.011557407 -0.0036444673 -0.023716858 -0.027000418 0.05013796 0.025637375 -0.056732815
-0.056860708 0.009133951 0.0036073127 0.018851794 -0.008748746 -0.0500162 -0.026581222 -0.12968661
-0.046714243 -0.09396568 -0.06381194 -0.02902003 0.016049083 -0.116635405 0.049041357 -0.03782141
-0.13574381 -0.106676005 -0.00092763687 -0.028740121 0.09016328 -0.06818338 -0.027973117 0.011846535
-0.017850444 0.039607566 -0.16950078 0.060783368 0.09097631 -0.110802166 -0.016594915 -0.058285385
-0.011069174 0.04361565 0.014812785 -0.005634357 0.06431165 -0.026952427 0.14353833 0.011311124
-0.026598237 -0.08451854 0.13198581 0.0077915383 -0.023040265 -0.06364745 -0.020149631 -0.011236404
0.040944528 0.018393746 0.0874588 0.0017402894 -0.1390788 -0.021027733 -0.052487202 -0.03340757

conv3.bias f4 [128]
00000000: 42e7 efbb a4e7 ef3c 94f1 91bd 5500 4f3d
00000010: 9cac 513c eaad 203d 6dff ce3d 16c0 dc3c
00000020: d2d8 643c d262 c6ba dc1a d13b 8dcf 40bd
00000030: f0ca a13c 39c1 92bb 4099 8c3d 7f8f 773d
00000040: 4d21 cd3c 8d44 6fbd eda9 723d ed81 a9b7
00000050: 97d7 a53d a87b 22bd e1c7 a33c f327 4c3d
00000060: bd2f 393c 653a 67bd addb ac3d 0f55 bc3c
00000070: 86f0 ba3b 42d0 0a3d 484e b8bc d361 323d
00000080: 5a2e 2fbd 9eb6 6e3c 0732 843d 37b2 85b9
00000090: 822d 5a3d 12cd b43c c000 123d feb6 913b
000000a0: 588b 91bc 0ecf 3c3d b7db 02bc 3781 90bc
000000b0: feca d53c 4e43 833d fb77 8b3d 2926 75bc
000000c0: f327 8a3a d415 4ebd 070d c1bc 790d a13c
000000d0: 4455 1bbb 2ef4 a33d 256f 743d 6fee 6abc
000000e0: dfb9 a6bd d744 bd3c 02ba 713c 7dde 2bbc
000000f0: 9ded 0a3c 698b b9bc 76be 41bc 712a 2b3c
00000100: 15cf 3e3d 3d2f 64bc 20e8 b03c cd02 72bd
00000110: 28a5 d9bd 7710 5f3d fce0 573d 7808 303d
00000120: e0b6 203d 3c96 373c af7a 3f3d 422a e43c
00000130: 2888 2d3d 7997 07be cb0a aa3d 9b6a 353d
00000140: d03b 0f3c f3a2 5e3d 47e4 d73b b33d be3c
00000150: 2028 da3d ddfd 4b3c 9fce c4bc f9a3 ac3c
00000160: f618 ab3b beda ab3c 8c02 48b9 0a99 913c
00000170: 012d b9bd b99d 6d3d ba2f 213d 602e 643d
00000180: 2d8b 00bd 085a 213d 30dd 33be cc67 133d
00000190: ebcf 88bd 6d5d 8dbc b5f6 293d 1657 b2bd
000001a0: 7570 cb3c 4374 e63c 5d14 273d 65b3 34bc
000001b0: af00 b33d ffbf 44bd 1de9 5fbc 8b27 143d
000001c0: 53b7 8dbc c491 41bc 9da9 1b3d ebb4 23bc
000001d0: 610e 4d3d 30bf e8bc 432a 163c f09d 9a3b
000001e0: 723b d7bc 9055 893c f874 373d 2473 293d
000001f0: 5e01 053c 1dc8 8d3d 2036 66bc 2ec3 213d
-0.0073212693 0.02928526 -0.071261555 0.050537426 0.012797501 0.039228357 0.10107312 0.026947062
0.01396771 -0.0015135652 0.0063813757 -0.047072936 0.019750088 -0.0044786003 0.068651676 0.060439583
0.025040293 -0.058414984 0.059244085 -2.0206871e-05 0.08097761 -0.03966871 0.01999277 0.049842786
0.011302886 -0.056452174 0.08440337 0.022989778 0.005704942 0.033890016 -0.022498265 0.043550324
-0.042768814 0.0145699065 0.064548545 -0.00025500517 0.053266056 0.022070441 0.035645247 0.004446863
-0.01776664 0.0460959 -0.007986954 -0.01763974 0.02609777 0.06409322 0.06809994 -0.014962711
0.001054047 -0.050313786 -0.023565782 0.019659745 -0.0023701945 0.08005558 0.05967631 -0.014339074
-0.08140921 0.023104114 0.01475382 -0.010490057 0.008479503 -0.022649484 -0.011825195 0.010447131
0.046584208 -0.013927278 0.02159506 -0.059084702 -0.10627204 0.05445906 0.052704796 0.042976826
0.039236903 0.011205252 0.04674786 0.027852181 0.042366177 -0.13241376 0.0830284 0.04429112
0.008742288 0.05435462 0.006588492 0.02322278 0.106521845 0.012450662 -0.024024306 0.021074282
0.0052214814 0.020978328 -0.00019074435 0.01777317 -0.09041787 0.058011744 0.039352156 0.05570829
-0.03138273 0.0393925 -0.17564845 0.03598766 -0.06680282 -0.017256463 0.041495044 -0.087080166
0.024833897 0.02813161 0.040790904 -0.011029099 0.08740365 -0.048034664 -0.013666418 0.036170524
-0.01729933 -0.011814538 0.038003553 -0.009991865 0.05006254 -0.028411478 0.009165349 0.0047185346
-0.026273463 0.016764432 0.044789284 0.041369572 0.008118002 0.06922934 -0.01405099 0.03949278

act_conv1.weight f4 [4, 128, 1, 1]
00000000: 19cf 743e 9b46 04be 050a a0bd e869 5d3d
00000010: 1c1e b73d 1a6f 7ebd 752c c3bd e8ac 1ebd
00000020: 1798 823c ec06 633d b177 ffbd 5f4f 97bc
00000030: a26e e9bc a94f 183d 3dd8 063e 3b3b 64bd
00000040: 020e e6bd eb77 533e bc77 703d 7a43 7c3e
00000050: 13e7 0ebd 4b11 003e d036 fd3d 3c7b 31bd
00000060: d5b0 1cbe 77fb e7bd 89e7 47bd 8073 f23c
00000070: a64d 67bd 0ccc 673d 1656 5f3e ece8 0ebe
00000080: cde7 febd 0c11 10be 7036 b43c 7541 f5bd
00000090: 2008 34bd 029f 17bd e1b7 5cbc 06ce 7ebd
000000a0: 5ed9 ef3b c305 00bd 500f 5ebd c0b9 a4bd
000000b0: 4c7a 0f3e e4e3 203d 7b51 d7bd 80df 8c3e
000000c0: b75f 8e3e 5e1c d7bd f319 073e be57 673e
000000d0: c10b c03c ba33 bb3d c78c c6bd d9d8 61bd
000000e0: 7a23 5a3e d156 d1bd e930 5a3e 71f4 373e
000000f0: 52f8 7e3e 2980 37bd a330 46be 645a 08bd
00000100: 8bd9 6b3d ed20 0f3e 7372 3b3c 117e 9c3e
00000110: 5d38 e83d c7d8 0e3d e3e6 673d 1c3a aabd
00000120: 6162 bd3d e38f e4bd a37d dabc 5603 213e
00000130: 9f7a a1bd 3604 9b3c 7bbc 243a 7cc5 59bc
00000140: 1f9b eebd 4351 80bd b7e0 013d 7bc7 19be
00000150: 73da 683d b1b2 0cbd bcab 1cbe 8b69 56bd
00000160: da19 b13c 5a62 d8bc 2d51 95bd c102 24bd
00000170: 30a1 de3d 5a64 0cbe 762d 8f3e a11c 873e
00000180: 7cc2 153d 99ae c7bd a7bf 953b 3cb8 9bbd
00000190: 992f d33d cfdc dfbd b318 793d 7b9a 913b
000001a0: deb4 bd3d 1678 143d 4beb 44be e270 973e
000001b0: 0b23 b4bd fddf 35be 8522 cfbd 0c08 0dbc
000001c0: e8d6 1c3b fb96 ab3d 3d23 fdbd 6254 413e
000001d0: 4f86 d33d 77c1 d6bc 4a68 a43e 82b4 e1bd
000001e0: fd0c 93bd 65e6 3cbd 8ad3 3e3e dcc2 60bd
000001f0: efbe 003e f4fa a5bc 6fb7 09be 2d76 f0bd
00000200: 7f6a bc3e a9cd efbb f6ab 80bb c6b7 133c
00000210: 6c2c 1ebb c6fc d53d dbaa bdbd 3028 eabd
00000220: fc29 91bd 1376 a13d 6bac 67bd 197d 1d3e
00000230: e990 c63d 5b01 633d f585 37bd 0b6f 44bd
00000240: c1b3 6f3d d289 d53d 55d7 1ebe 46c6 c83c
00000250: 18a7 84bd f04a 4ebd d9a5 233e df17 43bc
00000260: 529f 333d ac6a 103e d740 6c3d 915d 79bd
00000270: 9324 9f3c 340e 0d3c 39b3 efbd 23c4 ebbd
00000280: e183 b8bb dffb c33d 333a de3d 74cf f83d
00000290: 7c6c 943d cefb fbbd baa2 abbd 88fb 583d
000002a0: 686c b33d 36a5 4fbd 3476 9c3d f94a 4d3c
000002b0: 0509 bdbc 08c2 1f3d f7bb 95bd faa6 fb3c
000002c0: 3736 393c 4ca2 173c f9fe 4bbd c841 1b3e
000002d0: f428 37bb fc46 963c d380 babd 1a4d 7dbc
000002e0: 5ae3 8fbe 102b cf3b 1cbc efbc 680c 7dbc
000002f0: 97a9 05bc cb53 583d 1aad 63bd 5862 abbc
00000300: ec4d 0bbd b96a d4bc e24f a73d 3f0e 0ebd
00000310: 5467 a2bd 706c 433d 1a38 783c 7d1a d93c
00000320: 4582 ce3d f61f cdbd 3c8b fbbd 6621 183e
00000330: e5ac 24bd 319e 2ebe 0b81 b53c f9ad c4bd
00000340: 79b5 be3e 74f3 fcbc 8670 7d3d ee03 823d
00000350: 7a46 3c3c 585a 7fbe b4e1 d8bd 4db0 4f3d
00000360: f2ce 033e ae79 643d 03f0 b23c c52e c53d
00000370: b9ce d6bc ddc6 4cbe a453 40bd 1b0a d63d
00000380: 8bfb 9b3d f476 8d3d 0bb4 653e f266 ebbd
00000390: 70d7 60bd 343e 35bc 9ea7 403d ef2f d13b
000003a0: f5ba fd3a cf64 f2bd 0692 223d fc20 1e3c
000003b0: b843 9ebb 8283 8cbb 4161 653c b820 8b3d
000003c0: 9efa 633d b4cb ce3d 4253 4cbd a4b9 d63d
000003d0: d1b0 febc 2b53 f23d 6f43 363d 19b4 9d3b
000003e0: 1fef 993d 2b90 a7bd d3ad 03bd 8e47 933d
000003f0: a075 e536 9140 b6bc 0685 ce3c 2573 eebc
0.23907126 -0.12917559 -0.07814411 0.05405608 0.0894129 -0.062117673 -0.09529964 -0.038739115
0.015941663 0.055426523 -0.12474001 -0.018470464 -0.028495137 0.037185345 0.13168426 -0.05572055
-0.112331405 0.20651214 0.058707938 0.24635115 -0.03488834 0.12506597 0.1236397 -0.043330416
-0.15301831 -0.1132726 -0.048804794 0.02959609 -0.056470536 0.05659108 0.21810183 -0.1395604
-0.12446556 -0.14069003 0.021998614 -0.119753756 -0.04395306 -0.037016876 -0.0134715745 -0.062208198
0.0073196134 -0.031255495 -0.054213822 -0.080432415 0.14011496 0.039279833 -0.10513588 0.27514267
0.278074 -0.105034575 0.13193493 0.22592065 0.023443105 0.091407254 -0.0969482 -0.055138443
0.21302596 -0.10221637 0.2130772 0.17964341 0.24899414 -0.044799957 -0.19354491 -0.03328933
0.057580512 0.13977404 0.011440861 0.3056493 0.113388754 0.034874704 0.056616675 -0.08311865
0.0924728 -0.11160257 -0.026671236 0.15723929 -0.07884716 0.018922906 0.00062841893 -0.013291713
-0.11650681 -0.062654994 0.031708445 -0.15017502 0.056848954 -0.0343501 -0.15299886 -0.052346747
0.021618772 -0.026414085 -0.07290874 -0.04004169 0.10870588 -0.13710156 0.2796437 0.2638903
0.036562428 -0.09750099 0.004569966 -0.07603499 0.10311813 -0.10930788 0.06081457 0.0044434643
0.09263013 0.036247335 -0.19230382 0.2957831 -0.087957464 -0.17761226 -0.10114006 -0.008607876
0.0023931805 0.083784066 -0.12360237 0.18879846 0.10328352 -0.026215298 0.32110816 -0.11020757
-0.07180212 -0.04611816 0.18635383 -0.054873332 0.12572835 -0.020261265 -0.1344888 -0.1174129
0.368 -0.007318218 -0.0039267493 0.009015983 -0.0024135364 0.10448603 -0.09261104 -0.114334464
-0.07088086 0.07883849 -0.056560915 0.15379752 0.09695608 0.055421215 -0.044805486 -0.04795746
0.058521036 0.10426678 -0.1551183 0.024508607 -0.06477183 -0.050364435 0.15981235 -0.011907547
0.04385311 0.14103192 0.057679024 -0.060880248 0.01942662 0.008609343 -0.11704106 -0.115120195
-0.0056309556 0.09569525 0.10850944 0.121489435 0.07247254 -0.12303887 -0.08380647 0.052974254
0.08760911 -0.050694667 0.07639733 0.012530082 -0.02307559 0.039003402 -0.07311242 0.030719269
0.01130443 0.009255003 -0.049803708 0.15161812 -0.0027947994 0.018344395 -0.091066025 -0.015460277
-0.28103143 0.006322272 -0.029264502 -0.015444852 -0.008158109 0.052814286 -0.055585004 -0.020920917
-0.03400986 -0.025929796 0.08169533 -0.034681555 -0.079298645 0.047710836 0.015150094 0.026501888
0.10083441 -0.10015862 -0.12282416 0.1485649 -0.040203948 -0.17052533 0.022156259 -0.09603495
0.37247828 -0.030877806 0.06187489 0.06348406 0.011491412 -0.24936807 -0.105899245 0.050705243
0.12871912 0.055780105 0.021842962 0.09628061 -0.02622162 -0.19997735 -0.046954766 0.10451146
0.076163374 0.06907454 0.22431962 -0.11494245 -0.054892957 -0.011062194 0.047034852 0.006383888
0.0019358086 -0.11835634 0.03969004 0.009651419 -0.00482985 -0.004288138 0.014000238 0.0679335
0.05565893 0.10097447 -0.04988409 0.10484627 -0.031090172 0.11832269 0.044497903 0.004812729
0.07516312 -0.08181795 -0.032148194 0.07191382 6.838425e-06 -0.022247585 0.025209915 -0.02910764

act_conv1.bias f4 [4]
00000000: 498b 4abb e1c2 2ebd 2f21 823d 710a c8bd
-0.0030905774 -0.04266632 0.063539855 -0.097676165

act_fc1.weight f4 [100, 400]
00000000: a330 c63c ca23 50bc 2580 5d3c 36f1 14bc
00000010: 3636 173b d092 23bd eefa bfbd 8ff6 ccbd
00000020: 9dfb 56bc c8da 113d b516 ce3a aa83 353c
00000030: 4d3e 173d 0394 62bd d00f dd3b 555a cdbd
00000040: 6d0d 0d3b 0fba 8fbd 034a fdbc b4c2 05bd
00000050: de1f 82bd e034 58bd 9222 16bd 84ed 6abd
00000060: 5ccb 05bc a672 8cbd e84b 53bc a60d 213d
00000070: c5ab 84bd 6106 d13b fe4d 29bc 488d 13bd
00000080: d846 6bbd 140c 58bd 5bcf 2fbd 14ee c6bd
00000090: bec3 66bd 5fde a5bd d917 50bd fc16 d83c
000000a0: 1dd2 7fbd 82bc 84bc af2e 6bbc 22db f5bd
000000b0: 7bbe c2bd 69f9 9cbd 78cf 933b af9f 513b
000000c0: e6f1 7e3c 60ea 3d3c aa1a d73b 5c7e 95bd
000000d0: 23c0 6fbd 59f9 64bd 077f f1bd 3027 2bbd
000000e0: 0846 01be 710b bebc 2dc5 90bc 5883 0e3d
000000f0: 51a2 84bc 02bc dbbd a6d2 0dbd 77f4 36bd
00000100: 8c9f 74bd 89f3 93bd dcb8 03bc 3252 443b
00000110: 6b86 82ba 1c5d f33c 0e0a 1a3d 7032 2fbd
00000120: da79 1d3d 9333 23bd 574b 9cbd 3dee 213c
00000130: 5a70 e8bc d5a3 993b 7d95 873c d8e4 83bc
00000140: 7cf4 febd 2380 3d3d 9c3b 1ebd fcd7 86bd
00000150: 2e02 c13c 0a51 28bb 958a 73bb e55f 593c
00000160: 90ce 243b 2034 09bd 071a 80bc 2e6c fabb
00000170: a726 7bbd b276 77bd ff57 49bb fdc3 2c3b
00000180: ce8d 46bd 2ec8 dd3c 355d 9abc 928d 093d
00000190: c633 693b 9e78 ee3c 53be 353d e2cc 4e3d
000001a0: 3fa4 573d ed38 b23c 5f77 c03b 4e26 acba
000001b0: 3c40 8e3c 57db 703c 3b58 933c 8e21 d0bb
000001c0: fe39 353c 0c58 f03b 6695 eb3c 4a5e 4b3d
000001d0: 6ed7 233d d1a9 eb3a 9834 14bd b2b1 073d
000001e0: 5613 86bc f166 813c 7982 243d e2bc b73c
000001f0: 10c6 723d f433 cf3b c5f4 c43c 3bd5 963d
00000200: 0268 fd3c fa41 74bc bbb9 d73c faf7 153d
00000210: db3c ee3c e0b9 823d 2a71 0a3c 36ac c83d
00000220: 3c68 893d 2449 a73c 09f7 353d 4497 e7bc
00000230: 3d30 b53c fe70 7c3d 8849 7f3d ca6d 353d
00000240: 4fff 8a3d 1bb0 493d faad 6f3d ca28 063d
00000250: 76fe 5d3d 1e3b d93b 1a4d 843d 21f4 5b3d
00000260: 708a bf3d 350b e63c 5bd1 413c 3d36 7d3c
00000270: 2ac8 073c 2fa6 5e3d 8431 253d e29d 063d
00000280: 6d44 533d ca18 ef3d fc93 843d 5daf 60bd
00000290: 4e99 043c f2ad 063d 6d41 6e3d 439f 4abb
000002a0: c468 103d 5dc6 323c fd40 1f3e 4cc8 e63d
000002b0: 1eb4 80bd 98a5 37bc d54f 383d c81c 2b3d
000002c0: d85d 8c3d fd25 8e3c a5e1 34bc 253f 0cbd
000002d0: b741 eb3c 7247 e1bd 0637 1dbd bce5 de3d
000002e0: ac67 903d 0e2c 9b3d a4fc 433c 4dcb e2bb
000002f0: 7a57 23bb f088 cfbc 5a9c 3fbe d39f b8be
00000300: 91fe 603e ca8e d93d b048 903d 7890 073d
00000310: d171 413d 8e9e fa3a 9760 6b3c 1c03 65ba
00000320: dab6 8e3d 2db3 433c 643d bcbc 8cd7 52ba
00000330: 05de c6bc 1eba b0bc d827 2fbc 9a8a 86bc
00000340: 201f 86bc da38 b93c b86c 3c3d a5fd 14bc
00000350: f21a babb d2be 8bbc 905a dcbc a7b8 55bd
00000360: 3f96 19bd f6d1 18bd 2fa0 10bd 0e27 36bc
00000370: 603b 4e3d fe71 d9bc 8e3c eabc c410 a3bc
00000380: efca 1dbd d822 2abb 2940 71bd 2dbd d83b
00000390: 0c09 0fbd 4943 e13b e0c2 5a3c 6a75 7bbc
000003a0: 5c60 30bd 8139 e8bc fec6 8bbd 8c34 0ebd
000003b0: 32e8 6fbd 37dc 68bd 2358 82bd 88be ddbc
000003c0: b3d7 7b3c ab76 91bd 8fc7 dfbc c62d 9bbd
000003d0: 1fff fcbc ff0e 5fbd 1889 37bd ca85 0cbd
000003e0: 7459 67bd c435 4abc d178 2dbd 7591 96bc
000003f0: 437c a4bd 2c1c 97bd dac4 a9bb c4e2 1abd
0.024193114 -0.012703845 0.013519322 -0.009090712 0.0023073084 -0.039934933 -0.09374033 -0.10007965
-0.013121513 0.035609037 0.001572332 0.011078754 0.03692465 -0.055316936 0.0067462698 -0.10026995
0.0021522895 -0.0701791 -0.03091908 -0.032656386 -0.063537344 -0.0527848 -0.036654063 -0.05735542
-0.00816616 -0.06857805 -0.012896515 0.039319657 -0.06478075 0.0063789343 -0.010333536 -0.03602341
-0.05744061 -0.052745894 -0.04292236 -0.097133785 -0.056339018 -0.080990545 -0.050803993 0.026378147
-0.06245624 -0.016203169 -0.014354392 -0.12004687 -0.095089875 -0.07664759 0.004510816 0.0031986048
0.015560603 0.011591524 0.006564458 -0.07299492 -0.058532845 -0.05590186 -0.11791807 -0.04178542
-0.12624371 -0.023198815 -0.017672146 0.034793228 -0.01619068 -0.10729219 -0.034624718 -0.044666734
-0.05972247 -0.07224185 -0.008039679 0.0029956219 -0.0009958273 0.029707484 0.037607245 -0.04277271
0.038446285 -0.039844107 -0.076315574 0.009883461 -0.028373886 0.0046887198 0.016550774 -0.016100332
-0.124489754 0.04626478 -0.038631067 -0.065841645 0.02356061 -0.0025683069 -0.0037161459 0.013267492
0.0025147535 -0.033496976 -0.01563741 -0.0076422906 -0.06131616 -0.06041593 -0.0030722616 0.0026361935
-0.04847508 0.027072992 -0.018843273 0.033582278 0.0035583838 0.02911025 0.04437096 0.05048836
0.05264687 0.02175566 0.005873605 -0.0013133974 0.017364614 0.014700732 0.017986408 -0.0063516563
0.01106119 0.0073347148 0.028757762 0.049650468 0.04000037 0.0017979686 -0.03618297 0.033128448
-0.016366642 0.015796157 0.04016349 0.022428934 0.05927092 0.006323332 0.024042496 0.07364889
0.030933384 -0.014908308 0.02633368 0.036613442 0.029081753 0.06383109 0.008449832 0.09798472
0.06709334 0.020420618 0.044425044 -0.028270371 0.022117728 0.061631195 0.062325984 0.044294156
0.067869775 0.049240213 0.058515526 0.032753743 0.05419775 0.006629362 0.064600185 0.053699616
0.09352577 0.028081516 0.011829699 0.015454826 0.008287469 0.054357704 0.040330425 0.032865413
0.051578928 0.1167465 0.06473538 -0.05485474 0.008093191 0.03288073 0.058167864 -0.0030917681
0.035256162 0.010911551 0.15552135 0.11268672 -0.062843546 -0.011208914 0.04499801 0.041775495
0.06853837 0.017352099 -0.011040126 -0.034239907 0.028717859 -0.10999955 -0.038382553 0.10883662
0.07051024 0.07576762 0.01196209 -0.006921208 -0.0024923966 -0.025333852 -0.18711987 -0.36059436
0.2197211 0.10622938 0.07045114 0.03309676 0.047227684 0.0019120739 0.0143662905 -0.000873612
0.0696847 0.011944574 -0.022978492 -0.0008042983 -0.024275789 -0.021573123 -0.010690652 -0.016423512
-0.016372263 0.022610117 0.04600212 -0.009093677 -0.0056794817 -0.017058764 -0.026898652 -0.05217805
-0.0374968 -0.03730961 -0.035309013 -0.01111771 0.050349593 -0.026543614 -0.028593328 -0.019905455
-0.03852361 -0.002596071 -0.05889908 0.0066143484 -0.034920737 0.006874476 0.013352126 -0.015347818
-0.043060645 -0.028347732 -0.06825064 -0.03471808 -0.058571048 -0.05685064 -0.06364467 -0.027068391
0.015371251 -0.07102712 -0.027316837 -0.0757709 -0.03088337 -0.05445766 -0.044808477 -0.03430728
-0.056481794 -0.01234192 -0.042351548 -0.018379906 -0.080315135 -0.0737842 -0.0051809372 -0.037813917

act_fc1.bias f4 [100]
00000000: a1b0 f3bc 509b 33bc 3cf4 8c3c b657 17bd
00000010: 8a0b 103c 7e68 c6bc 2e2f 84bc a6c0 4a3b
00000020: 1745 9f3b 46e2 c0bc ec6d d5bb 873a 763c
00000030: fb44 76bd 2d6b b6bb a7eb 55bc 3e12 58bd
00000040: 2796 11bc 4df6 03bd 57ce a9bc 3bab 353c
00000050: f99a 863c 4123 b5bb 199c dabc 40b8 5bbc
00000060: 7044 0a3d 3922 e83c 031d b6bc 64b8 823c
00000070: 5664 c0bc a9b0 2d3c 66e1 f1bc f5b0 d3bc
00000080: 477b 2abd 2778 913d 6b48 d23d 37df 413d
00000090: 8935 183d 343c 92bd 16b6 40bd 38e2 8bbc
000000a0: 5c42 47bc e060 5fbd c9ca 5c3d bda0 ba3d
000000b0: efc2 0b3d ce7a 6d3d d440 823d 6704 083d
000000c0: 517e 80bd 4c8c 2cbc f030 d63b 6c14 2039
000000d0: 52c2 563d d1c2 323d 0cc5 4d3d 5956 673d
000000e0: f96d 8b3d b4d6 783d 492a edbc b154 2bbc
000000f0: 3c7f a9bc 6466 44bd 706f debc a2f8 c03d
00000100: d925 7c3d 77be 553d f156 dd3d 4a59 10bd
00000110: 4829 7cbb e939 eebc 3c3c dd3b 3f0a 56bd
00000120: 9d8b 1bbb 997f 0bbd beb9 283d 7c25 753d
00000130: 49e6 a9bc 4579 9d3c e2fe 22bd 8e20 303c
00000140: 4da6 66bc 0b3c f4bc 4ca4 1cbd 0323 08bd
00000150: f9eb 84bd f95b 37bd 3cdb 27bd 3b59 5bbd
00000160: 8a5b a2bc bcdb f9bc 76cc 41bc abf7 4dbb
00000170: 227d 97bc d472 6dbd 9fd8 0fbd 96e1 91bc
00000180: 6ae5 9abc 3a4d e2ba 6618 83bc 8625 19bd
-0.02974731 -0.010962322 0.017206304 -0.036948882 0.008791814 -0.024219748 -0.016135778 0.0030937581
0.004860531 -0.023545396 -0.006513348 0.015028602 -0.06012438 -0.0055669756 -0.013056672 -0.052751772
-0.008885897 -0.032217313 -0.020728273 0.011088188 0.016431319 -0.0055278842 -0.026685761 -0.013410628
0.033756673 0.028336631 -0.02223063 0.015957065 -0.023485344 0.010601201 -0.029526424 -0.025841216
-0.041621473 0.07102995 0.10267719 0.047332015 0.03716043 -0.07140389 -0.04704865 -0.017075643
-0.012161817 -0.054535747 0.05390433 0.0911269 0.03412145 0.057978444 0.06360021 0.033207323
-0.06274093 -0.010531496 0.0065365955 0.00015266397 0.052431412 0.043642823 0.050236747 0.056478832
0.06808085 0.06075163 -0.028950827 -0.010457204 -0.020690553 -0.04794921 -0.027152747 0.09422423
0.06155953 0.052183595 0.108075984 -0.035241403 -0.0038476754 -0.029080348 0.0067515653 -0.052255865
-0.002373434 -0.034057233 0.041192763 0.0598502 -0.020739691 0.019222865 -0.039793856 0.010749949
-0.014077735 -0.029813787 -0.038242623 -0.033236515 -0.06490321 -0.044765446 -0.040980563 -0.053551894
-0.01981904 -0.030500285 -0.011828532 -0.003142814 -0.018492285 -0.057970837 -0.035118695 -0.017807763
-0.018908221 -0.0017265447 -0.016002845 -0.0373893

val_conv1.weight f4 [2, 128, 1, 1]
00000000: 6d55 ba3d fbf5 e1bd 788c 85bd 6ae2 79ba
00000010: be57 ccbe 89d9 483d 0271 b43d 3684 473e
00000020: c16d febd cd31 e6bd e845 b63d 0cc4 30be
00000030: 1d3a 5b3d 4479 793e 3bfd 273e bed1 d43c
00000040: c565 e53d 3a98 38be eed8 233d 649c eebd
00000050: a261 1abe f053 0a3e 617e 6bbe 4649 5c3d
00000060: 7f4c 9f3d c5ce 9d3d 9524 943d e440 553e
00000070: 6236 f83d a109 84be ee27 2b3e df38 0b3c
00000080: e052 15be ec79 ec3d 781e c53c ee40 623d
00000090: 8f6e 213c 4ab2 0fbc db5a 4d3e 51d9 963d
000000a0: 1ea2 29be b098 3d3e e953 45bd 102e c83d
000000b0: 17f4 a7bd 02e8 ec3d 602b a53d 77ea 34be
000000c0: c794 173e 85df 2ebd e65d ba3e 2196 963e
000000d0: 975d 86be 203a 743e a8df 1fbe 6c40 9ebe
000000e0: 57bf d23e 2001 ba3d 5d0d 37bd fda2 a13d
000000f0: e8f8 edbd 640e c63d 580c 36bd 6138 8fbe
00000100: 7b26 b23e e099 1bbd e379 08be 5ce7 833e
00000110: d8fe 93bd 89a6 563d 87cc ae3d e024 37bb
00000120: 28f7 e73d a7b4 83be 03ce a4bd acd8 eb3b
00000130: 6976 57bd 6186 f13e cbbd 28bc 7d88 b73d
00000140: 047c ef3a 5e39 553d 95bc b43c 66ba abbd
00000150: 0b33 423e 3b7a d03d eafd 30be a271 bdbc
00000160: 254a e53d d9ad d3bc 504f c03e b6fd 12be
00000170: b256 af3e 54ad 16be b429 38be 6f5b b13d
00000180: 2858 61bd 7ec3 6ebd a9b6 aa3e 3b43 a7bd
00000190: a5eb 8ebd 9595 6c3e 8829 0c3d d6c6 f93d
000001a0: d4e0 31be 5345 103e 1bcb a13d 5786 2d3d
000001b0: 2564 6a3e a700 8a3e 6e79 ee3d 1edd b73b
000001c0: 0b69 e03d f670 3abe d639 103f ee32 05be
000001d0: 63a5 0d3e 4c74 14be dd47 14be 706f 143d
000001e0: 29c4 88bd 26d6 513e 7766 63bd c1bb e63c
000001f0: bbd0 053e c06e 6bbe b07c 6e3c d869 a9be
00000200: 14fd 1d3e 0ddc 61be 3759 febd 6838 60be
00000210: 2dc5 d9bd 234c c5bd 3106 343d 4415 9bbd
00000220: 0f4b ecbc 6811 8c3d 2145 56be 09d5 89bd
00000230: 2807 783d 064d 0c3d 72bc 633e 565f f83c
00000240: ab9b 8b3d 1da1 23bc 927e 87be d59a bb3d
00000250: 54f6 9bbb 4a3b c9be de08 b3be f673 363e
00000260: f9a1 133d d916 a63d faa1 74bd 2ade 25be
00000270: 4705 b4bd 2072 e23d d2bd b1be 8230 a63d
00000280: 051f 343d 136d 06be 792d ca3d 73ef 153e
00000290: 1e5c c33d 1eea 92bd c472 3ebd be1e d33d
000002a0: df60 3cbd b3bc f73d 5c95 4b3d 5ca6 a73d
000002b0: 1663 f43d f0c1 64be 4f11 933d b6df 063d
000002c0: a061 533e 64dc 883d 32a4 47be ceba 3dbe
000002d0: c750 e73d 7c29 be3c c63a 8e3c a76e 33bd
000002e0: ef36 30be 5e49 163d 1a17 9dbb 4356 2f3e
000002f0: 7b77 66bc f595 19be 7522 aa3d 945d bbbd
00000300: d52b 88be aa15 1e3c 48c6 cfbd 923f 3dbe
00000310: b073 983e 3bc9 27be 4079 59bd a575 a4be
00000320: 73b9 223e f800 99be c7e1 383d 438c 6bbe
00000330: 6bf0 443e 18da 54be 54b3 063e dc35 603d
00000340: 6b62 9e3d 73ac fd3c 1442 da3e 03bc 343d
00000350: 88d9 6e3e b7a4 393d 999d be3d 72c9 043e
00000360: 9c95 e8bc d8c0 5cbd 6c68 32be 00e7 09be
00000370: eab5 b9be 1043 a4bb 0172 903c 47d4 49be
00000380: 9f37 4b3d c969 ba3d 2075 febd 16d6 f7bd
00000390: e615 a3be da18 bdbe 3ff4 343e b7a8 183e
000003a0: 8b2d 013e 3fe3 af3d 70e6 933d 5c7d 263e
000003b0: b771 193e 0d14 dabe e0e1 61bc 9998 fc3d
000003c0: f6bb e7bd 35c4 2e3d 498b 91be b28e 773d
000003d0: cf5f c83d 5ece 37bd cbc3 363e 124e 303e
000003e0: a837 1cbe 6945 413e 9137 80bc 793a 023e
000003f0: 9a35 c3be c589 b4bd e381 26be 1904 413e
0.09098325 -0.11033245 -0.06520933 -0.00095323345 -0.39910692 0.049035583 0.08810617 0.19484028
-0.12423278 -0.112399675 0.08900052 -0.17262286 0.053522218 0.24362665 0.16405194 0.02597892
0.112010516 -0.1802682 0.040001802 -0.11650923 -0.15076306 0.13508582 -0.22997428 0.053780816
0.07778262 0.07705454 0.0723354 0.20825535 0.12119748 -0.25788596 0.1671445 0.008497446
-0.14582396 0.11546692 0.02406238 0.055237703 0.009853019 -0.008770535 0.2005419 0.073656686
-0.16565749 0.18515277 -0.048175726 0.09774411 -0.08200853 0.115676895 0.08064914 -0.17667566
0.14802848 -0.042693634 0.36399764 0.29411414 -0.26243278 0.23850298 -0.15612662 -0.30908525
0.41161606 0.09082246 -0.04469048 0.07892416 -0.11619741 0.096707135 -0.044445366 -0.279727
0.34794983 -0.037988544 -0.13327746 0.2576245 -0.07226342 0.052404914 0.08535104 -0.0027945563
0.11326438 -0.25723764 -0.08047106 0.00719746 -0.05260316 0.47172835 -0.010299156 0.0896158
0.0018271212 0.052056663 0.02206258 -0.08385162 0.18964784 0.101795636 -0.1728436 -0.023125473
0.111957826 -0.025839733 0.3756051 -0.14354596 0.3424583 -0.14714557 -0.17984658 0.08660018
-0.055015713 -0.058291905 0.33342484 -0.0816712 -0.069785394 0.23103936 0.034219295 0.12196128
-0.17370921 0.14088945 0.079000674 0.042364445 0.22889765 0.26953623 0.116442546 0.005611076
0.10957535 -0.18207154 0.5633825 -0.1300771 0.13832621 -0.14497489 -0.14480539 0.036239088
-0.066780396 0.20491847 -0.05551764 0.0281657 0.13067906 -0.22991467 0.014556095 -0.33088565
0.15428573 -0.22056599 -0.1241936 -0.21896517 -0.106333114 -0.096336626 0.043951217 -0.075724155
-0.028844384 0.068392575 -0.20924808 -0.06730086 0.0605537 0.034253143 0.22239855 0.030318897
0.06816801 -0.009987143 -0.26463753 0.09160391 -0.004759589 -0.39303046 -0.34967703 0.17817673
0.03604314 0.081098266 -0.059724785 -0.1619803 -0.08790069 0.11056924 -0.34715134 0.08114721
0.043974895 -0.13127546 0.098719545 0.14642124 0.09539054 -0.071735606 -0.046496168 0.10308598
-0.04599082 0.120965384 0.049702987 0.081860274 0.11932962 -0.22339606 0.07181036 0.03292819
0.2064271 0.06682661 -0.1949623 -0.18528292 0.11294704 0.02321314 0.01736201 -0.0438067
-0.17208456 0.036691062 -0.0047940137 0.1712275 -0.014066572 -0.1499861 0.083073534 -0.09148708
-0.2659594 0.00964872 -0.10145241 -0.18481281 0.29775763 -0.16385357 -0.05309415 -0.32121006
0.15891056 -0.29883552 0.045137193 -0.23002724 0.19232337 -0.20786321 0.13154346 0.054738864
0.077336155 0.03096602 0.4262854 0.044124614 0.23325169 0.0453231 0.09307403 0.1296747
-0.028391652 -0.053894848 -0.17422646 -0.13467026 -0.36271602 -0.0050128773 0.017632486 -0.19709884
0.04961359 0.09102208 -0.124246836 -0.121013805 -0.31852645 -0.36933023 0.17671297 0.1490811
0.1261503 0.08588266 0.07221687 0.16258758 0.14984785 -0.42593423 -0.013786763 0.12333793
-0.113151476 0.042667586 -0.2842658 0.06043882 0.09783899 -0.04487454 0.17848127 0.17217281
-0.15255606 0.18874134 -0.015651496 0.12717618 -0.38126832 -0.0881534 -0.16260485 0.1884922

val_conv1.bias f4 [2]
00000000: 93cf f3bc 9bbf a5bc
-0.029762065 -0.020232966
